unimumo/audio/beat_detection/pretrained_models/baseline_v1/RNNBeatProc.pth (torch_old, 399833 bytes, 26 tensors)

lstm.weight_ih_l0 f4 [100, 314]
-0.038358655 -0.03585097 -0.029503457 -0.024947379 -0.035811786 -0.04661496 -0.046760887 -0.05707461
-0.04687032 -0.014308249 -0.01609229 -0.015813302 -0.017839804 -0.018783938 -0.010771385 -0.0021370414
0.0006902328 0.0019459061 0.0018643696 0.0016341106 0.00142251 -0.005688123 -0.0051698997 -0.006002305
-0.0047516716 -0.0026678648 -0.0019895106 0.0016847097 0.0015222729 0.000362854 0.003932701 0.0023782472
0.00049749325 0.000771561 0.00052204763 -0.0011170108 0.00027526065 0.00036829573 -0.00013773322 0.0010763964
0.0012537447 0.0011608741 -0.036228985 -0.041578572 -0.035833113 -0.041540578 -0.033846524 -0.04625917
-0.03291823 -0.036697827 -0.025889669 -0.02979793 -0.05052981 -0.03994718 -0.04880795 -0.05335899
-0.032811243 -0.046372596 -0.06132004 -0.054862697 -0.050142936 -0.027731461 -0.0051596626 -0.025787352
-0.026606673 -0.011690706 -0.019127095 -0.02182056 -0.013745188 -0.024411717 -0.020635026 -0.014225237
-0.014087166 -0.009347605 -0.0049431957 0.0015482359 -0.0023624299 -0.00021992245 0.002248451 0.0025153486
0.0014929665 -0.00044052623 0.0009535477 0.0027469692 0.0006624739 -0.0009758694 0.00049056124 -0.0034865725
-0.004228553 -0.0060534407 -0.0047061383 -0.007302163 -0.0045091724 -0.005926227 -0.00461234 -0.0044419486
-0.002283776 -0.0004394029 -0.0038807818 -0.0030130034 -0.0019647842 4.5148874e-05 0.0013183784 0.0001754312
0.0015895001 -0.00020698777 0.0028392288 0.001863698 0.0005068164 0.0012317821 0.001815051 -0.002724919
-0.0011870691 -0.00014991048 -0.0010563327 0.00095365144 0.000544058 -0.0009477667 0.00025664418 0.00056868815
0.0009320327 0.000633108 0.00024697147 0.00035809263 0.0010257177 0.0016765732 0.0017191874 0.0013275734
0.0013811616 0.0010295719 0.00053602207 0.0005340685 -0.03584884 -0.052025158 -0.03653246 -0.024156855
-0.03480318 -0.032259706 -0.03913061 -0.03013993 -0.02831702 -0.04964589 -0.053491414 -0.041191176
-0.0364954 -0.03365499 -0.051724173 -0.049498312 -0.03281808 -0.021844637 -0.037927628 -0.046897575
-0.06640205 -0.04753125 -0.04087593 -0.053152654 -0.054433476 -0.061141014 -0.057400923 -0.043358102
-0.026838478 -0.030032974 -0.06076945 -0.0553845 -0.061567005 -0.06837425 -0.04033884 -0.058420826
-0.050191216 -0.038391225 -0.03525522 -0.008428441 -0.008061818 -0.013642091 -0.037569474 -0.03365577
-0.02652386 -0.027048629 -0.008007381 -0.022833325 -0.028020317 -0.030485777 -0.026605789 -0.014947938
-0.016418312 -0.026637793 -0.028669715 -0.02449698 -0.024635682 -0.023816867 -0.017347071 -0.01612105
-0.017847879 -0.018002598 -0.009876531 -0.0113445595 -0.0076368707 -0.0070554293 -0.00043648752 -0.0015908849
-0.008329218 -0.0034128553 -0.0007191495 -0.00015749592 0.002143665 -0.0006293314 0.0028449 0.0016895948
0.00040912934 -0.0012870032 -0.002360887 -0.00077858113 -0.0005395702 0.0014741374 0.0019974401 0.0020762777
-0.00064643566 -0.0022425659 -0.0026818113 -0.0014734818 -0.0002157306 0.00038258848 0.00047609964 -0.0046288553
-0.0056130234 -0.0073382384 -0.006616023 -0.009655833 -0.011909687 -0.011376087 -0.0075580785 -0.008378351
-0.0068843425 -0.00661672 -0.009179889 -0.007824839 -0.0078087095 -0.009239207 -0.0065476918 -0.0036511533
-0.0018767259 -0.004785691 -0.0032994032 -0.0041541276 -0.0049155303 -0.0057672486 -0.0042274543 -0.0070737153
-0.0067070876 -0.0054942355 -0.0037850237 -0.0042025195 -0.0023595828 -0.0009815323 -0.003861582 -0.002912116
00000000: f71d 1dbd 77d8 12bd 3cb1 f1bc 725e ccbc
00000010: 61af 12bd 54ef 3ebd 5888 3fbd 11c7 69bd
00000020: 18fb 3fbd 256d 6abc fad3 83bc e68a 81bc
00000030: c824 92bc c6e0 99bc 777a 30bc 9b0d 0cbb
00000040: bdf0 343a c60d ff3a dd5d f43a a72f d63a
00000050: 8473 ba3a 6f63 babb 4368 a9bb fcae c4bb
00000060: e9b3 9bbb 58d7 2ebb 7362 02bb 7ad1 dc3a
00000070: 0187 c73a 713d be39 e3dd 803b 5edc 1b3b
00000080: 356a 023a 9542 4a3a 06da 083a aa68 92ba
00000090: dc50 9039 d117 c139 7b6c 10b9 df15 8d3a
000000a0: b154 a43a 7928 983a d864 14bd 4b4e 2abd
000000b0: bec5 12bd 7426 2abd a7a2 0abd 417a 3dbd
000000c0: 44d5 06bd 7650 16bd 9216 d4bc ca1a f4bc
000000d0: 59f8 4ebd a79f 23bd d8ea 47bd f58e 5abd
000000e0: 1565 06bd 31f1 3dbd b92a 7bbd b5b7 60bd
000000f0: ae62 4dbd 172d e3bc 6312 a9bb ff3f d3bc
00000100: 3df6 d9bc 608a 3fbc 6db0 9cbc 08c1 b2bc
00000110: 7f33 61bc 15fb c7bc c90a a9bc f810 69bc
00000120: dbcd 66bc b226 19bc 88fa a1bb 2dee ca3a
00000130: ffd2 1abb fc9a 66b9 c05a 133b 8cd8 243b
00000140: a5af c33a 6ef6 e6b9 81f7 793a 7f06 343b
00000150: dfa9 2d3a 7dd1 7fba 0299 003a fb7e 64bb
00000160: ac8f 8abb f15b c6bb f335 9abb fc46 efbb
00000170: aec1 93bb cc30 c2bb 1d23 97bb c48d 91bb
00000180: 67ab 15bb a95f e6b9 b754 7ebb cf75 45bb
00000190: 9cc3 00bb 3c5e 3d38 70cd ac3a f4f3 3739
000001a0: c656 d03a db0a 59b9 5b12 3a3b 5447 f43a
000001b0: dfdb 043a c073 a13a 01e7 ed3a 8e94 32bb
000001c0: 6e97 9bba 4a31 1db9 a574 8aba 77fe 793a
000001d0: 1d9f 0e3a 8c73 78ba 338e 8639 0414 153a
000001e0: a853 743a 29f7 253a f37b 8139 61be bb39
000001f0: 6071 863a 76c0 db3a 5b56 e13a f901 ae3a
00000200: 1808 b53a b3f2 863a d583 0c3a bb00 0c3a
00000210: 3cd6 12bd 5518 55bd 10a3 15bd 99e4 c5bc
00000220: c78d 0ebd c122 04bd 6b47 20bd 04e8 f6bc
00000230: 18f9 e7bc 7d59 4bbd d019 5bbd 14b8 28bd
00000240: 337c 15bd d1d9 09bd badc 53bd bebe 4abd
00000250: 406c 06bd 86f3 b2bc 005a 1bbd ac17 40bd
00000260: ccfd 87bd 21b0 42bd 856d 27bd 99b6 59bd
00000270: a3f5 5ebd 006f 7abd 3b1d 6bbd 4498 31bd
00000280: 5edc dbbc b607 f6bc 63e9 78bd dcda 62bd
00000290: af2d 7cbd cc07 8cbd 573a 25bd ad4a 6fbd
000002a0: 4e95 4dbd 1e40 1dbd c767 10bd 7217 0abc
000002b0: b715 04bc 1483 5fbc 73e2 19bd a2da 09bd
000002c0: 9148 d9bc 1695 ddbc 6431 03bc f40c bbbc
000002d0: dd8a e5bc 4fbd f9bc 62f4 d9bc 32e8 74bc
000002e0: b27f 86bc 8037 dabc c0dc eabc e4ad c8bc
000002f0: c5d0 c9bc 971b c3bc 721b 8ebc 4b10 84bc
00000300: b735 92bc 2f7a 93bc 2cd1 21bc 88de 39bc
00000310: b73e fabb 3b31 e7bb 5dd8 e4b9 3d85 d0ba
00000320: 4677 08bc 36aa 5fbb 4e85 3cba 7d25 25b9
00000330: bb7c 0c3b b7f9 24ba 8071 3a3b 6575 dd3a
00000340: 6980 d639 a9b0 a8ba 1cb9 1abb b219 4cba
00000350: f171 0dba d837 c13a 7ce7 023b 2912 083b
00000360: 9075 29ba 03f8 12bb 54c1 2fbb d821 c1ba
00000370: be35 62b9 2896 c839 039d f939 a7ad 97bb
00000380: 74ed b7bb 9b75 f0bb 39cb d8bb 8033 1ebc
00000390: d920 43bc c462 3abc c2a9 f7bb 5a45 09bc
000003a0: 0d96 e1bb 12d1 d8bb 3f67 16bc c133 00bc
000003b0: 34e0 ffbb 0b60 17bc 058e d6bb 3048 6fbb
000003c0: 79fc f5ba 49d1 9cbb cd3a 58bb 591f 88bb
000003d0: 7512 a1bb 30fb bcbb 7586 8abb a0ca e7bb
000003e0: 21c7 dbbb fd08 b4bb 290e 78bb 4ab5 89bb
000003f0: 3ba3 1abb c2a6 80ba 9812 7dbb 33d9 3ebb

lstm.weight_hh_l0 f4 [100, 25]
-0.0014576378 -0.0280421 0.05823109 0.020984229 0.039622925 -0.079595305 0.03063261 0.00088899763
0.065220766 -0.01493956 -0.0046926956 -0.05440427 -0.00024363922 -0.025889242 0.055834617 -0.021591432
0.0731307 -0.0058278334 0.011143818 -0.033868436 -0.030779773 -0.03270965 0.052179437 -0.013502298
-0.0101021025 -0.0089018075 -0.08641214 0.005298515 0.0632216 0.05944374 -0.01459012 0.05343687
-0.044039518 0.00012653577 -0.016803259 -0.003434516 0.018998867 -0.004724687 0.013100683 -0.054641824
-0.017177222 -0.036862597 0.03142679 0.06787066 -0.05030164 -0.0074751144 0.07263726 -0.040741578
-0.10039133 -0.020064209 -0.047018055 0.10827724 -0.23056169 -0.04860144 0.07195024 0.2574747
-0.011308281 0.03885882 0.04338723 0.20188807 -0.00595206 0.21570526 -0.029058212 0.051223125
-0.030108573 0.09994119 -0.046016015 0.15921532 0.07158607 0.0029299813 0.022994863 -0.11134551
-0.17603715 0.09043629 -0.05032393 0.008307425 -0.00054183975 0.13900764 0.10023376 0.08416961
-0.17142867 -0.074319065 -0.042697486 0.028465504 -0.09772448 0.054507338 -0.02237753 0.00871752
0.13299218 0.0012548135 0.078531556 0.16503957 0.087385744 -0.15897113 -0.028228145 0.058978934
0.08144444 0.14684182 -0.019483581 -0.005662794 -0.027541606 -0.026909927 0.053883027 -0.0151070235
0.03676516 -0.12772034 0.07215871 0.0046645706 0.03625482 -0.008422085 0.04550871 -0.011355342
-0.022118006 0.07210241 0.007901516 -0.08064661 0.007658696 -0.09281485 -0.021902006 -0.03988992
-0.0844714 -0.03376304 0.029556835 -0.053528514 -0.005174536 0.011613943 -0.05321813 -0.16485958
0.15854259 0.100701414 0.06651664 0.114741445 0.02562143 -0.16082563 0.04690054 0.09677125
0.021865811 0.0014079483 -0.09063704 -0.16476294 0.15720384 -0.026721027 0.11983953 -0.03748444
-0.097638644 -0.09442879 0.06152729 -0.24298784 0.043057937 -0.029578565 0.00910441 -0.037451703
0.073078565 0.030778205 -0.05939563 -0.0030943658 0.016018325 0.043860912 -0.037490536 -0.06437403
-0.0041405186 0.06609586 0.008341573 0.092339136 -0.10181169 0.0081983935 -0.088433884 -0.010909749
-0.08059118 0.002726681 0.07235206 0.1379522 0.11283442 0.11297024 0.020144483 0.014827311
-0.058103018 0.31960714 0.09775804 0.14553289 -0.23911719 -0.044103846 0.30008334 0.15546046
0.120873205 -0.48976862 -0.25459677 0.027189735 -0.22940183 0.077115096 -0.06707795 0.14788413
0.18279783 0.065750316 0.028015485 -0.30123278 -0.20763543 0.20252271 0.26108384 0.042379882
0.011277563 -0.036025997 0.062338438 -0.0037913201 0.08964905 -0.109602086 -0.06293258 -0.041373294
-0.03513132 0.05183473 0.060917813 -0.07120777 0.011749058 -0.03666818 -0.0012997811 0.08012436
0.22687654 -0.03586698 -0.27951163 0.0044252286 -0.056344736 0.049611975 0.089295596 0.050653856
0.014809166 -0.011243889 0.07029126 -0.17353608 -0.075417966 -0.15667728 0.26164114 -0.06753509
0.021714378 -0.17103738 -0.070753075 0.06767062 0.23306721 -0.010441873 0.058645163 -0.21081287
0.035062745 -0.12335019 0.085093416 0.034725554 -0.007400627 0.19860287 0.05055636 -0.221793
0.09017505 -0.0120990155 0.023955673 0.6202544 0.34391856 -0.081870936 0.5561171 -0.43488052
00000000: 350e bfba 8cb8 e5bc b983 6e3d 1ee7 ab3c
00000010: a64b 223d dd02 a3bd 3df1 fa3c 9f0b 693a
00000020: 7792 853d 0ec5 74bc 2fc5 99bb 03d7 5ebd
00000030: 6879 7fb9 ad15 d4bc d7b2 643d 84e0 b0bc
00000040: 8cc5 953d 69f7 bebb 8f94 363c a1b9 0abd
00000050: dd25 fcbc 8efa 05bd 1bba 553d be38 5dbc
00000060: 4a83 25bc e3d8 11bc d9f8 b0bd 2a9f ad3b
00000070: 547a 813d 477b 733d 660b 6fbc 9fe0 5a3d
00000080: c862 34bd b0ae 0439 fda6 89bc 9e15 61bb
00000090: 83a3 9b3c 8cd1 9abb 3fa4 563c 1bd0 5fbd
000000a0: 3fb7 8cbc 3cfd 16bd 61b9 003d c6ff 8a3d
000000b0: 1809 4ebd cef1 f4bb d8c2 943d a4e0 26bd
000000c0: f899 cdbd b25d a4bc 0196 40bd 75c0 dd3d
000000d0: 5d18 6cbe 4e12 47bd a65a 933d b9d3 833e
000000e0: 5e46 39bc 6d2a 1f3d cfb6 313d bfbb 4e3e
000000f0: 8009 c3bb d7e1 5c3e 7d0b eebc 57cf 513d
00000100: 41a6 f6bc f7ad cc3d 4a7b 3cbd 5709 233e
00000110: b89b 923d ee04 403b b95f bc3c 1d09 e4bd
00000120: 1543 34be a936 b93d 7720 4ebd de1b 083c
00000130: 400a 0eba 0558 0e3e 5c47 cd3d 1e61 ac3d
00000140: ff8a 2fbe 9834 98bd 8fe3 2ebd 7d30 e93c
00000150: c623 c8bd 1643 5f3d 1551 b7bc eed3 0e3c
00000160: 1a2f 083e 8e78 a43a 27d5 a03d 2200 293e
00000170: 4cf7 b23d 54c9 22be b63e e7bc e593 713d
00000180: 58cc a63d b45d 163e 089c 9fbc f68e b9bb
00000190: ef9e e1bc 3572 dcbc 73b4 5c3d 7383 77bc
000001a0: 1097 163d 1fc9 02be f2c7 933d 41d9 983b
000001b0: ef7f 143d c9fc 09bc 5767 3a3d c20b 3abc
000001c0: d230 b5bc 6eaa 933d 5c75 013c 0d2a a5bd
000001d0: ccf5 fa3b b615 bebd d66b b3bc 9d63 23bd
000001e0: 57ff acbd 1d4b 0abd 2d21 f23c b740 5bbd
000001f0: 278f a9bb 6848 3e3c 41fb 59bd f3d0 28be
00000200: fd58 223e 8b3c ce3d e039 883d 90fd ea3d
00000210: 08e4 d13c 79af 24be c81a 403d 0130 c63d
00000220: ee1f b33c e88a b83a ea9f b9bd 9eb7 28be
00000230: 0bfa 203e 0ee6 dabc 6d6e f53d 4989 19bd
00000240: c5f6 c7bd e263 c1bd 0a04 7c3d ced1 78be
00000250: 855d 303d bf4e f2bc aa2a 153c f566 19bd
00000260: 37aa 953d 9322 fc3c d548 73bd d8ca 4abb
00000270: dd38 833c 80a7 333d ad8f 19bd 88d6 83bd
00000280: 30ad 87bb 445d 873d 18ab 083c 4d1c bd3d
00000290: a682 d0bd 8e52 063c d31c b5bd cebe 32bc
000002a0: fd0c a5bd 1eb2 323b 512d 943d 5743 0d3e
000002b0: bb15 e73d f15c e73d 0b06 a53c 40ee 723c
000002c0: 6efd 6dbd 8ca3 a33e 5e35 c83d 9306 153e
000002d0: 23db 74be 3ca6 34bd 86a4 993e 0731 1f3e
000002e0: 5f8c f73d f4c2 fabe 825a 82be 02bd de3c
000002f0: 50e8 6abe 85ee 9d3d 2a60 89bd f06e 173e
00000300: 5b2f 3b3e 1aa8 863d bb80 e53c 2f3b 9abe
00000310: 629e 54be 1d62 4f3e c8ac 853e 8796 2d3d
00000320: 87c5 383c ff8f 13bd 9756 7f3d cc77 78bb
00000330: ec99 b73d 0f77 e0bd cce2 80bd 0b77 29bd
00000340: dce5 0fbd a750 543d f584 793d 61d5 91bd
00000350: 1f7f 403c 6031 16bd 6b5d aaba 3e18 a43d
00000360: 5352 683e 41e9 12bd 261c 8fbe 8201 913b
00000370: bdc9 66bd ed35 4b3d 9ce0 b63d 6b7a 4f3d
00000380: 25a2 723c 4a38 38bc ddf4 8f3d 71b3 31be
00000390: bc74 9abd 0270 20be d4f5 853e d64f 8abd
000003a0: 5ae2 b13c 6c24 2fbe fde6 90bd e596 8a3d
000003b0: 2ca9 6e3e 6414 2bbc e935 703d 54df 57be
000003c0: f49d 0f3d 069f fcbd 7545 ae3d 623c 0e3d
000003d0: f580 f2bb 8d5e 4b3e 3014 4f3d b41d 63be
000003e0: b2ad b83d f33a 46bc b03e c43c fec8 1e3f
000003f0: 1816 b03e f3ab a7bd b15d 0e3f a9a8 debe

lstm.bias_ih_l0 f4 [100]
-0.0976446 0.04542268 0.18524815 -0.09209262 0.012981192 0.14739859 0.088746704 -0.2396367
-0.15404041 0.38017592 -0.01019552 0.2505934 -0.09840752 -0.01971802 0.40611348 -0.051385093
-0.17297477 -0.21617413 -0.08291829 -0.10196707 0.42360356 0.083630234 0.42926833 0.16450621
-0.11264498 -0.042768 -0.23954122 -0.61543524 -0.11243137 0.095621064 0.26050228 0.010392207
-0.29511097 0.20060101 -0.022809388 -0.15760213 0.24887308 -0.05931175 -0.09217635 0.034391113
-0.0022685667 0.24251914 -0.16320665 -0.12785017 0.077282436 -0.004347413 0.09564282 0.2728711
0.30801356 -0.059806153 -0.027309395 0.20990108 -0.27928624 -0.3678624 -0.05044347 0.361616
-0.023381354 0.1598386 -0.17144746 -0.03945912 0.13929994 0.44567302 -0.049405187 0.16568443
-0.22227505 0.1856073 -0.5053636 0.23073177 0.058834426 0.008296019 0.2741365 0.28829053
0.19672571 0.26769254 0.004216295 -0.116812676 -0.063247725 0.9124677 -0.26035118 -0.17624635
1.1462761 0.14308827 0.041887406 0.058042217 -0.13431233 0.037280906 0.3951767 -0.12637427
-0.18621327 0.18902877 -1.0235263 0.15616837 0.1814323 0.09654253 0.071792275 0.21334538
-0.27989343 0.882511 -0.020480603 -0.11466197
00000000: e4f9 c7bd 220d 3a3d b1b1 3d3e 0e9b bcbd
00000010: 11af 543c a8ef 163e d5c0 b53d 5363 75be
00000020: c5bc 1dbe 6ba6 c23e 1c0b 27bc c74d 803e
00000030: e289 c9bd af87 a1bc 1bee cf3e 2d79 52bd
00000040: 4c20 31be c05c 5dbe 10d1 a9bd 1cd4 d0bd
00000050: 91e2 d83e 5446 ab3d 0fc9 db3e 5174 283e
00000060: 69b2 e6bd 802d 2fbd 4b4a 75be 2a8d 1dbf
00000070: 6b42 e6bd fad4 c33d 8e60 853e 1344 2a3c
00000080: c918 97be 5a6a 4d3e c1da babc 7462 21be
00000090: 96d8 7e3e e1f0 72bd f4c6 bcbd b2dd 0c3d
000000a0: 3cac 14bb f056 783e a51f 27be 28eb 02be
000000b0: 4146 9e3d be74 8ebb 62e0 c33d c3b5 8b3e
000000c0: f4b3 9d3e 4cf7 74bd f4b7 dfbc 4ff0 563e
000000d0: 9bfe 8ebe 7658 bcbe d09d 4ebd bb25 b93e
000000e0: 418a bfbc bbac 233e ec8f 2fbe e39f 21bd
000000f0: a5a4 0e3e 412f e43e 185d 4abd 2ea9 293e
00000100: 129c 63be d70f 3e3e 825f 01bf f344 6c3e
00000110: 5efc 703d 07ec 073c 9f5b 8c3e d19a 933e
00000120: 7772 493e ff0e 893e d928 8a3b 7c3b efbd
00000130: 0688 81bd 7c97 693f c04c 85be ec79 34be
00000140: 2db9 923f bb85 123e 2192 2b3d adbd 6d3d
00000150: 2c89 09be ddb3 183d 9a54 ca3e 4268 01be
00000160: b1ae 3ebe c290 413e e902 83bf 9aea 1f3e
00000170: 64c9 393e 17b8 c53d d407 933d 3677 5a3e
00000180: 314e 8fbe 3eec 613f f0c6 a7bc e5d3 eabd

lstm.bias_hh_l0 f4 [100]
-0.0976446 0.04542268 0.18394609 -0.09209262 0.012981192 0.18299945 0.088746704 -0.2396367
-0.154041 0.3803357 -0.01019552 0.2505934 -0.09840752 -0.01971802 0.40433452 -0.051385056
-0.17360674 -0.21617413 -0.08291829 -0.10196707 0.40771687 0.083630234 0.42926833 0.16450621
-0.11264498 -0.042768 -0.23954122 -0.6153293 -0.11243137 0.095621064 0.26050258 0.010392207
-0.29511097 0.20058076 -0.022810848 -0.15760206 0.24887308 -0.05931175 -0.09217635 0.034391113
-0.00228775 0.24241573 -0.16320665 -0.12785017 0.077282436 -0.004340191 0.09564282 0.2728711
0.30801356 -0.059806153 -0.027302716 0.20990108 -0.25286826 -0.3678624 -0.05044347 0.36160344
-0.023505926 0.1598386 -0.17928626 -0.033272732 0.13578786 0.44567302 -0.049419727 0.16568443
-0.22242437 0.27561507 -0.5053636 0.23073274 0.058834426 0.008296019 0.2741365 0.28827748
0.19667087 0.26769254 0.004216295 -0.11681249 -0.063247725 0.9142087 -0.26035133 -0.17624635
1.1517632 0.14310545 0.041887406 0.062231634 -0.0792711 0.046373807 0.39666012 -0.12640221
-0.18621327 0.1883995 -1.0227089 0.15611851 0.18142791 0.09654253 0.071792275 0.21334538
-0.27276808 0.94203997 -0.05513526 -0.11466197
00000000: e4f9 c7bd 220d 3a3d 5d5c 3c3e 0e9b bcbd
00000010: 11af 543c 3564 3b3e d5c0 b53d 5363 75be
00000020: edbc 1dbe 5cbb c23e 1c0b 27bc c74d 803e
00000030: e289 c9bd af87 a1bc ef04 cf3e 2379 52bd
00000040: f7c5 31be c05c 5dbe 10d1 a9bd 1cd4 d0bd
00000050: 44c0 d03e 5446 ab3d 0fc9 db3e 5174 283e
00000060: 69b2 e6bd 802d 2fbd 4b4a 75be 3986 1dbf
00000070: 6b42 e6bd fad4 c33d 9860 853e 1344 2a3c
00000080: c918 97be 0b65 4d3e d1dd babc 6f62 21be
00000090: 96d8 7e3e e1f0 72bd f4c6 bcbd b2dd 0c3d
000000a0: 13ee 15bb d43b 783e a51f 27be 28eb 02be
000000b0: 4146 9e3d 2938 8ebb 62e0 c33d c3b5 8b3e
000000c0: f4b3 9d3e 4cf7 74bd f2a9 dfbc 4ff0 563e
000000d0: f377 81be 7658 bcbe d09d 4ebd 1624 b93e
000000e0: 808f c0bc bbac 233e d196 37be fd48 08bd
000000f0: f90b 0b3e 412f e43e 576c 4abd 2ea9 293e
00000100: 37c3 63be 6b1d 8d3e 825f 01bf 3445 6c3e
00000110: 5efc 703d 07ec 073c 9f5b 8c3e 1b99 933e
00000120: 1764 493e ff0e 893e d928 8a3b 633b efbd
00000130: 0688 81bd 9509 6a3f c54c 85be ec79 34be
00000140: fa6c 933f 3c8a 123e 2192 2b3d 99e6 7e3d
00000150: e358 a2bd 76f2 3d3d 0917 cb3e 956f 01be
00000160: b1ae 3ebe cceb 403e 20e8 82bf 88dd 1f3e
00000170: 3dc8 393e 17b8 c53d d407 933d 3677 5a3e
00000180: 42a8 8bbe 8829 713f 83d5 61bd e5d3 eabd

lstm.weight_ih_l0_reverse f4 [100, 314]
0.038237274 -0.0351417 -0.081110775 -0.09622187 -0.10651702 -0.093951136 -0.039694164 0.0291289
0.103172496 0.12318842 0.1414779 0.13033769 0.16314243 0.07818683 0.061125394 0.022672687
0.036561456 0.045677047 0.052106574 0.02024422 0.0022356536 -0.015457725 0.017729064 0.0201931
0.021682408 0.031115683 0.041518275 0.056062818 0.047738265 0.044639602 0.029389009 -0.016478952
-0.005505209 -0.0026063235 -0.0029208902 -0.01697679 -0.0018850147 -0.00322544 0.0009842139 0.0014363533
-0.0042846273 -0.010015694 0.23846017 0.15837458 0.0573567 -0.06083747 -0.059554506 0.022002269
-0.0010609507 -0.13494384 -0.151769 -0.014370813 -0.030969134 -0.21673968 -0.097042456 -0.034006324
0.012313176 -0.0049810205 0.058724128 0.18443125 0.14758533 0.09502253 0.14691594 0.17432845
0.15455373 0.09792563 0.10679481 0.17757753 0.14712408 0.13532196 0.056003198 0.057511672
0.052710027 0.07768591 0.0049797683 -0.00096092804 0.054409016 0.028614657 0.05100541 0.051807582
0.066523224 0.048769888 0.016062293 0.020205205 0.0074942345 -0.017554121 -0.0142669855 -0.01144855
0.020773208 0.0067932117 0.019300481 -0.0072761904 -0.0047112578 0.010734927 0.0056248214 0.058032848
0.027445924 0.046934225 0.08315287 0.061396327 0.061416373 0.10775023 0.038579635 0.021163676
0.04508898 0.05196284 0.03604416 -0.0043464988 0.0028103082 -0.009965008 -0.012216216 -0.0015325762
0.0048017655 -0.010049764 0.00735037 -0.0048928647 -0.008605698 -0.022615816 -0.010504548 -0.014654849
-0.015164858 -0.015915068 -0.014201418 -0.014708025 -0.0076074223 -0.0035485341 -0.00013207186 -0.011280236
-0.017075237 -0.016467819 -0.014491204 -0.0129978405 0.21587156 0.1376587 0.17777015 0.11881345
0.14033884 0.06185339 -0.11931818 -0.08385632 -0.06658594 -0.07442108 0.00843682 0.023653781
-0.052538045 -0.046989392 -0.042904478 -0.091659784 -0.13900933 -0.12228472 -0.0008462737 0.11606243
-0.005124098 -0.23641732 -0.2104917 0.006456122 -0.042199697 -0.040243544 0.0024729767 0.1769918
-0.008928741 -0.027279034 0.017370047 6.739416e-05 0.07871804 0.0793998 0.23325913 0.18341978
0.181744 0.09437892 0.040380068 0.19925596 0.09214539 0.1139981 0.17451005 0.22240548
0.14324775 -0.0043097823 0.019731726 0.11090101 0.124025464 0.022640139 0.13714686 0.25612983
0.0816851 0.0927303 0.100936465 0.11273474 0.0067860666 -0.020196274 0.036500152 0.04690015
0.031430017 -0.012525491 0.098384365 0.015742397 -0.02757412 -0.06482655 -0.055975363 0.016555544
0.020110989 0.03783844 -0.020261243 -0.002794803 0.03605886 0.026581911 0.025351467 0.03794699
0.046115804 0.057315312 0.049714204 0.011128208 0.00034820705 -0.005891109 0.002618464 0.0054091495
-0.014886834 -0.022135783 -0.044983685 -0.054821666 -0.036185138 -0.028927479 -0.029983504 -0.05184127
-0.0315309 -0.022149408 -0.0034092667 -0.05422274 -0.038367186 0.07218532 -0.008388055 -0.051423974
-0.11669715 -0.09505248 -0.04772861 -0.10625608 -0.10130354 -0.059090476 -0.037119426 -0.038365383
-0.020958142 -0.0384388 -0.05083102 -0.023507304 -0.017708201 0.023957033 0.019858234 0.031354968
-0.0029310465 0.08013449 0.055745583 0.093697436 0.024215592 0.085502565 0.018995086 -0.025690952
00000000: b09e 1c3d bef0 0fbd 681d a6bd f90f c5bd
00000010: 9825 dabd 7469 c0bd 5996 22bd bb9f ee3c
00000020: 1a4c d33d 364a fc3d 95df 103e 3e77 053e
00000030: cf0e 273e 6b20 a03d 9f5e 7a3d 12bc b93c
00000040: 77c1 153d db17 3b3d b46d 553d 35d7 a53c
00000050: 0b84 123b 6642 7dbc 8b3c 913c 006c a53c
00000060: 4e9f b13c 51e6 fe3c 110f 2a3d 20a2 653d
00000070: 3389 433d 04d8 363d 38c1 f03c defe 86bc
00000080: 0a65 b4bb dace 2abb 686c 3fbb e912 8bbc
00000090: 9912 f7ba e761 53bb bd00 813a 0544 bc3a
000000a0: 0f66 8cbb de18 24bc e72e 743e f22c 223e
000000b0: dcee 6a3d b630 79bd 6def 73bd 1a3e b43c
000000c0: 990f 8bba b82e 0abe 5569 1bbe 8f73 6bbc
000000d0: fbb2 fdbc 02f1 5dbe 32be c6bd 374a 0bbd
000000e0: 34bd 493c d437 a3bb b688 703d 8cdb 3c3e
000000f0: 9c20 173e 2c9b c23d 2271 163e 2883 323e
00000100: 5543 1e3e 3c8d c83d 3db7 da3d e2d6 353e
00000110: b2a7 163e d791 0a3e 9c63 653d 5c91 6b3d
00000120: 78e6 573d ca19 9f3d 532d a33b cae6 7bba
00000130: fddb 5e3d 4969 ea3c 0ceb 503d 3034 543d
00000140: 543d 883d efc2 473d 1295 833c 6385 a53c
00000150: 3292 f53b a9cd 8fbc 13c0 69bc b392 3bbc
00000160: 932c aa3c 9799 de3b 0b1c 9e3c 1c6d eebb
00000170: e560 9abb 8ce1 2f3c 6c50 b83b dab3 6d3d
00000180: 46d6 e03c 1a3e 403d 0d4c aa3d b77a 7b3d
00000190: bc8f 7b3d 27ac dc3d ae05 1e3d 725f ad3c
000001a0: 39af 383d fdd6 543d 0ba3 133d 136d 8ebb
000001b0: 262d 383b 4644 23bc 8626 48bc b9e0 c8ba
000001c0: 2158 9d3b c4a7 24bc 5fdb f03b 5354 a0bb
000001d0: eafe 0cbc ce44 b9bc 451b 2cbc e41a 70bc
000001e0: 0676 78bc 5160 82bc 10ad 68bc eef9 70bc
000001f0: af47 f9bb 868e 68bb c57c 0ab9 bdd0 38bc
00000200: 5ee1 8bbc 85e7 86bc 846c 6dbc e5f4 54bc
00000210: 6f0d 5d3e 67f6 0c3e 6109 363e 7754 f33d
00000220: fcb4 0f3e fb59 7d3d 175d f4bd ddbc abbd
00000230: 365e 88bd 146a 98bd 963a 0a3c 93c5 c13c
00000240: 2232 57bd f377 40bd 9bbc 2fbd 20b8 bbbd
00000250: 7658 0ebe 6970 fabd 77d8 5dba 24b2 ed3d
00000260: 0de8 a7bb 6217 72be 238b 57be e08d d33b
00000270: 97d9 2cbd 6ad6 24bd aa11 223b 573d 353e
00000280: db49 12bc 4878 dfbc a14b 8e3c f755 8d38
00000290: ec36 a13d 5d9c a23d 7bdb 6e3e 65d2 3b3e
000002a0: 191b 3a3e bc49 c13d 9265 253d c109 4c3e
000002b0: b9b6 bc3d d677 e93d c3b2 323e 43be 633e
000002c0: 8aaf 123e 1339 8dbb 6ea4 a13c 1220 e33d
000002d0: 1001 fe3d d077 b93c 3a70 0c3e 7323 833e
000002e0: 854a a73d 62e9 bd3d c7b7 ce3d 79e1 e63d
000002f0: a75d de3b a872 a5bc 2f81 153d 5f1a 403d
00000300: c3bc 003d b837 4dbc be7d c93d 33f6 803c
00000310: 1fe3 e1bc c8c3 84bd 6c46 65bd 7e9f 873c
00000320: cdbf a43c 7bfc 1a3d e8fa a5bc 0329 37bb
00000330: 75b2 133d 4fc2 d93c e1ad cf3c 4e6e 1b3d
00000340: ede3 3c3d 76c3 6a3d 1fa1 4b3d 1653 363c
00000350: 8f8f b639 340a c1bb 899a 2b3b 3c3f b13b
00000360: e8e7 73bc 1a56 b5bc d040 38bd af8c 60bd
00000370: de36 14bd 52f9 ecbc f79f f5bc 8357 54bd
00000380: 8c26 01bd ad72 b5bc 016e 5fbb aa18 5ebd
00000390: e926 1dbd e6d5 933d 0d6e 09bc f2a1 52bd
000003a0: eafe eebd e0aa c2bd 137f 43bd ca9c d9bd
000003b0: 3b78 cfbd db08 72bd 8a0a 18bd 0525 1dbd
000003c0: 69b0 abbc 0172 1dbd 3034 50bd 6492 c0bc
000003d0: ca10 91bc 8a41 c43c bcad a23c 116e 003d
000003e0: cd16 40bb 8d1d a43d 7b55 643d 71e4 bf3d
000003f0: c75f c63c f81b af3d 959b 9b3c d575 d2bc

lstm.weight_hh_l0_reverse f4 [100, 25]
0.108066864 -0.08543894 0.1350081 -0.051159184 -0.011802142 0.06909003 -0.1100927 -0.108237416
-0.029221278 -0.023941506 0.018843353 0.14378744 0.03549126 0.08063852 0.055399053 0.006304893
0.047981814 0.012318026 0.05710558 -0.0059874402 -0.025575582 0.08401032 0.03702378 -0.0514653
0.108699776 0.047009286 -0.0036995788 0.010032413 -0.01842617 0.09737777 0.18958698 0.01568096
0.46880025 -0.24585178 -0.02019185 0.020907875 0.36898494 0.21081202 0.45010337 0.10151184
0.012613954 0.2275406 -0.009628278 0.2691883 0.13218784 -0.01440307 0.14321841 -0.12391577
-0.04944228 0.065703444 0.011429102 0.005909695 0.06454819 0.03933464 -0.033717576 0.042264882
-0.08601999 0.018748157 -0.005921458 -0.03849871 0.017898403 -0.003351622 0.009971094 0.058762334
0.03303485 -0.033605326 0.023086878 0.017788125 0.08358862 0.02568755 0.07349722 0.0021682922
0.04419582 -0.0030168924 -0.018524883 0.10167062 -0.043017607 0.049097072 0.048167933 0.07822235
-0.020103386 -0.08984469 0.029218307 0.012692841 0.10777574 -0.016079042 0.058637623 -0.04652111
0.012016196 0.12709306 0.07753098 0.021367243 -0.048273496 -0.18715902 0.0072206175 0.04840888
0.044683877 -0.0031903482 -0.024494361 0.03001059 -0.115726076 0.13714 0.113982305 -0.08029367
-0.05681743 -0.006501827 -0.08002635 0.10466523 0.034309532 -0.0069146804 -0.012794789 0.033924878
0.06830832 -0.010752945 -0.09000466 0.02482913 -0.031005502 -0.028167933 0.039534282 -0.012454247
0.023003072 -0.0237133 -0.045907993 0.038625695 0.049300406 -0.15327439 0.054684654 0.042574756
-0.21371648 0.28517795 -2.186571 -0.6629955 0.11396884 -0.80915236 -0.01614147 0.010457418
0.066035524 -0.02157066 0.37282786 0.09023835 -0.3101978 0.117477275 0.02947924 -0.40024632
-0.18836503 0.6707854 0.05657182 -0.3011346 0.20931037 -0.22286099 -0.17024654 0.15495276
0.01712755 -0.07091132 -0.08515585 0.0032893496 -0.15611939 -0.005626004 0.0070663327 0.058681928
0.013604264 0.0177259 -0.07016311 -0.015279983 0.087425865 -0.041646242 -0.030087842 -0.040031496
0.041433606 0.017239131 0.12876618 0.013382531 0.03554163 -0.023999719 0.07481848 -0.076162204
0.036604326 -0.37477174 -0.038035642 -0.075733505 -0.11079787 0.19164892 -0.13137835 -0.22786134
-0.21131177 -0.022062616 0.22350198 0.063569844 0.24912933 -0.008022015 0.062473126 -0.010697701
0.056494266 -0.36598176 -0.07912832 -0.07193746 0.11566968 -0.17496364 0.3672475 -0.09970601
-0.03554475 0.05216241 0.06351582 0.045161337 0.052768998 0.11335866 -0.1378408 0.014603068
0.032838657 0.02686994 -0.026481321 -0.019978749 -0.011187082 0.07230251 0.06509988 -0.029301673
0.047173057 -0.0040196828 0.06903677 0.01899586 0.090478174 -0.004412876 0.079305686 -0.0066364002
-0.045265406 -0.068578035 0.041072905 0.015550258 -0.042233933 -0.032193866 0.01175739 -0.050154623
-0.053994652 0.07496202 0.050088134 -0.005780373 -0.004024436 -0.055016775 0.04395556 -0.005092736
-0.028659957 0.0005928878 -0.014843563 -0.02250177 0.04955105 0.029907076 0.0045068683 -0.012224157
-0.0030523236 0.050944123 0.021260455 -0.017165646 -0.019946316 0.010712695 0.0033494818 -0.03805192
00000000: 2952 dd3d 9cfa aebd 903f 0a3e 4b8c 51bd
00000010: c55d 41bc 137f 8d3d 4878 e1bd 94ab ddbd
00000020: 7661 efbc fa20 c4bc 605d 9a3c 043d 133e
00000030: 495f 113d cf25 a53d 1eea 623d 4799 ce3b
00000040: 9488 443d 8cd1 493c 8ae7 693d 4a32 c4bb
00000050: e283 d1bc 9a0d ac3d 3fa6 173d 47cd 52bd
00000060: fd9d de3d cf8c 403d a274 72bb fd5e 243c
00000070: 7bf2 96bc ff6d c73d 1723 423e 5b75 803c
00000080: 9606 f03e 92c0 7bbe 6169 a5bc fe46 ab3c
00000090: 98eb bc3e 1bdf 573e f373 e63e 71e5 cf3d
000000a0: c2aa 4e3c 6700 693e edbf 1dbc 0dd3 893e
000000b0: 405c 073e dbfa 6bbc d9a7 123e 8dc7 fdbd
000000c0: fd83 4abd 878f 863d 2141 3b3c 1da6 c13b
000000d0: d731 843d 5c1d 213d 711b 0abd f11d 2d3d
000000e0: 402b b0bd bc95 993c ca08 c2bb d3b0 1dbd
000000f0: ac9f 923c e3a6 5bbb cd5d 233c c6b0 703d
00000100: 8d4f 073d bda5 09bd b120 bd3c 67b8 913c
00000110: 8330 ab3d b26e d23c b685 963d e819 0e3b
00000120: ad06 353d 0eb7 45bb 7fc1 97bc b038 d03d
00000130: 3b33 30bd 031a 493d bd4b 453d 0a33 a03d
00000140: dbaf a4bc 7e00 b8bd 3b5b ef3c a2f5 4f3c
00000150: 87b9 dc3d 32b8 83bc 012e 703d eb8c 3ebd
00000160: 94df 443c af24 023e 90c8 9e3d 5b0a af3c
00000170: 6eba 45bd 9da6 3fbe ee9a ec3b 6448 463d
00000180: 7106 373d 2915 51bb 66a8 c8bc c5d8 f53c
00000190: cb01 edbd 6e6e 0c3e 8e6f e93d 0271 a4bd
000001a0: 65b9 68bd 470d d5bb dbe4 a3bd b95a d63d
000001b0: 2788 0c3d 8b94 e2bb 3ca1 51bc d0f4 0a3d
000001c0: 3ce5 8b3d 1f2d 30bc 5d54 b8bd 7666 cb3c
000001d0: 40ff fdbc 70c0 e6bc b3ee 213d e60c 4cbc
000001e0: f070 bc3c 6542 c2bc 050a 3cbd fa35 1e3d
000001f0: 39ef 493d f6f3 1cbe 04fd 5f3d de62 2e3d
00000200: 7ed8 5abe d802 923e c7f0 0bc0 13ba 29bf
00000210: 7f68 e93d 9c24 4fbf 1e3b 84bc 9755 2b3c
00000220: a23d 873d f4b4 b0bc 4be3 be3e e2ce b83d
00000230: 3fd2 9ebe ed97 f03d 727e f13c 16ed ccbe
00000240: c3e2 40be 98b8 2b3f dab7 673d 502e 9abe
00000250: 7555 563e ac35 64be 1c55 2ebe f0ab 1e3e
00000260: 134f 8c3c f439 91bd 3166 aebd 2192 573b
00000270: c3dd 1fbe 585a b8bb b28c e73b 765c 703d
00000280: 6be4 5e3c e835 913c adb1 8fbd e558 7abc
00000290: 550c b33d 4095 2abd c77a f6bc 11f8 23bd
000002a0: 49b6 293d 1439 8d3c 48db 033e 6742 5b3c
000002b0: 1a94 113d 0f9b c4bc 6e3a 993d eefa 9bbd
000002c0: 6bee 153d 15e2 bfbe 43cb 1bbd 2b1a 9bbd
000002d0: fee9 e2bd 9d3f 443e 0c88 06be 7c54 69be
000002e0: 1d62 58be a9bc b4bc b4dd 643e e830 823d
000002f0: c21b 7f3e c56e 03bc d2e3 7f3d 6945 2fbc
00000300: 8866 673d f661 bbbe 070e a2bd f253 93bd
00000310: 3ae4 ec3d ab29 33be dd07 bc3e aa32 ccbd
00000320: 5f97 11bd 40a8 553d 9514 823d 18fb 383d
00000330: 4e24 583d 9628 e83d 2426 0dbe b541 6f3c
00000340: d481 063d 591e dc3c 5bef d8bc 79aa a3bc
00000350: 064a 37bc 5713 943d 1653 853d 100a f0bc
00000360: 8938 413d 8bb7 83bb 2663 8d3d 359d 9b3c
00000370: 9f4c b93d e399 90bb 056b a23d 2976 d9bb
00000380: 3868 39bd a472 8cbd 103c 283d 82c6 7e3c
00000390: 7dfd 2cbd b7dd 03bd 11a2 403c ef6e 4dbd
000003a0: 7f29 5dbd b085 993d 3729 4d3d 4869 bdbb
000003b0: 6bdf 83bb 4559 61bd bf0a 343d f7e0 a6bb
000003c0: 49c8 eabc 076c 1b3a 6a32 73bc a255 b8bc
000003d0: 0bf6 4a3d afff f43c 5aae 933b d547 48bc
000003e0: 7e09 48bb c9aa 503d 682a ae3c f89e 8cbc
000003f0: 7566 a3bc 4d84 2f3c fb82 5b3b 54dc 1bbd

lstm.bias_ih_l0_reverse f4 [100]
0.025854042 0.03409983 0.21079856 0.11536029 0.06457591 0.7589425 0.059298437 -0.2051989
0.30371398 0.04047306 -0.10618193 -0.19766799 0.02660346 0.20977038 -0.61473244 -0.00926779
0.15740038 -0.034840785 -0.09720997 -0.02332899 0.19181436 -0.013053065 0.13793707 0.024329487
-0.119943395 0.0006165681 0.2931947 0.40670392 0.15984145 0.1747604 0.024619387 0.16306588
0.005287614 0.033400644 0.106580116 -0.0627415 0.05144043 -0.061654802 -0.026170751 0.18443838
0.11457137 0.014123785 -0.06627853 0.29778755 -0.15409718 -0.06340078 -0.0154936435 0.16841389
0.016804071 -0.11142626 0.054808296 -0.020314349 0.34071282 -0.0051410883 0.06942183 0.029667528
-0.19565223 0.099429145 0.090419784 0.036494907 0.047591437 0.10549799 0.029685661 0.5320531
0.1837405 -0.046782095 0.029827861 0.0020765522 0.2503823 0.034727067 0.22297792 0.0109447185
0.22438551 -0.10221982 -0.16077973 -0.0380426 0.45149142 -0.02343877 0.17039631 0.024218762
0.04380033 -0.05393896 -0.3053603 0.25048 0.054228805 -0.1335921 -0.1181561 -0.03269435
0.064470515 0.0764104 -0.019010356 0.12499566 -0.13570753 -0.16473424 -0.16981442 -0.03204892
-0.037067275 -0.20762588 -2.0929077 -0.013517551
00000000: dbcb d33c 43ac 0b3d 94db 573e 0442 ec3d
00000010: 6040 843d 0e4a 423f ebe2 723d a91f 52be
00000020: 6680 9b3e 14c7 253d e975 d9bd 7a69 4abe
00000030: 80ef d93c 0cce 563e 1b5f 1dbf eed7 17bc
00000040: 912d 213e 36b5 0ebd 0516 c7bd 701c bfbc
00000050: fc6a 443e 86dc 55bc 603f 0d3e a24e c73c
00000060: e2a4 f5bd 2fa1 213a 9e1d 963e 7f3b d03e
00000070: 7aad 233e 64f4 323e 99ae c93c befa 263e
00000080: b943 ad3b 1dcf 083d ad46 da3d 9e7e 80bd
00000090: 33b3 523d bf89 7cbd 0b64 d6bc 6add 3c3e
000000a0: 65a4 ea3d 7367 673c 0abd 87bd 9c77 983e
000000b0: a7cb 1dbe 45d8 81bd 0dd9 7dbc b174 2c3e
000000c0: b1a8 893c 7333 e4bd aa7e 603d 476a a6bc
000000d0: e971 ae3e 9376 a8bb 082d 8e3d 5109 f33c
000000e0: 0f59 48be 82a1 cb3d 022e b93d af7b 153d
000000f0: 3def 423d 550f d83d 582f f33c a234 083f
00000100: 7826 3c3e 959e 3fbd 8f59 f43c c416 083b
00000110: 1c32 803e f83d 0e3d 5354 643e 7a51 333c
00000120: 51c5 653e a058 d1bd 71a3 24be 8fd2 1bbd
00000130: e229 e73e aa02 c0bc 5f7c 2e3e 6d66 c63c
00000140: fa67 333d 19ef 5cbd 2f58 9cbe ea3e 803e
00000150: 061f 5e3d 5ecc 08be d3fb f1bd 83ea 05bd
00000160: 1e09 843d 0e7d 9c3d 9bbb 9bbc b9fd ff3d
00000170: eaf6 0abe 18b0 28be d5e3 2dbe ba45 03bd
00000180: dbd3 17bd e19b 54be 33f2 05c0 b878 5dbc

lstm.bias_hh_l0_reverse f4 [100]
0.025854042 0.033286985 0.21079856 0.11536029 0.06457576 0.7589717 0.059296317 -0.2051989
0.30371398 0.04047306 -0.10618193 -0.19766799 0.02660346 0.20977038 -0.62231505 -0.00926779
0.15740038 -0.034840785 -0.09720997 -0.02332899 0.19181436 -0.013053065 0.13793707 0.024329487
-0.119943544 0.0006165681 0.29425716 0.40670392 0.15984145 0.1747604 0.024619592 0.16295716
0.005287614 0.0333999 0.106580116 -0.0627415 0.05144043 -0.061654802 -0.026170751 0.18411633
0.11457137 0.014123785 -0.06627853 0.29778755 -0.15409651 -0.06340078 -0.0154936435 0.16841389
0.016804071 -0.11142626 0.054808296 0.049701758 0.34071237 -0.0051410883 0.06942183 0.057675377
-0.22635199 0.09943164 0.09092031 0.036494907 0.047591437 0.10549799 0.029685661 0.50995725
0.18626769 -0.046782095 0.029827861 0.0020765522 0.2503823 0.010564584 0.22298306 0.0109447185
0.22438551 -0.10223122 -0.16075805 -0.0380426 0.45149142 -0.024191983 0.17039631 0.024218762
0.042306688 -0.063931234 -0.30531305 0.24960701 0.054228805 -0.1335921 -0.1181561 -0.03269435
0.06466205 0.0667788 -0.019010356 0.12499603 -0.13570753 -0.16486694 -0.17929868 -0.051389255
-0.037067275 -0.20654517 -2.122762 -0.013549282
00000000: dbcb d33c ef57 083d 94db 573e 0442 ec3d
00000010: 4c40 843d f84b 423f b2e0 723d a91f 52be
00000020: 6680 9b3e 14c7 253d e975 d9bd 7a69 4abe
00000030: 80ef d93c 0cce 563e 0a50 1fbf eed7 17bc
00000040: 912d 213e 36b5 0ebd 0516 c7bd 701c bfbc
00000050: fc6a 443e 86dc 55bc 603f 0d3e a24e c73c
00000060: f6a4 f5bd 2fa1 213a e0a8 963e 7f3b d03e
00000070: 7aad 233e 64f4 323e 07af c93c 3ede 263e
00000080: b943 ad3b 55ce 083d ad46 da3d 9e7e 80bd
00000090: 33b3 523d bf89 7cbd 0b64 d6bc fe88 3c3e
000000a0: 65a4 ea3d 7367 673c 0abd 87bd 9c77 983e
000000b0: 7acb 1dbe 45d8 81bd 0dd9 7dbc b174 2c3e
000000c0: b1a8 893c 7333 e4bd aa7e 603d 1294 4b3d
000000d0: da71 ae3e 9376 a8bb 082d 8e3d 043d 6c3d
000000e0: d1c8 67be d1a2 cb3d 6d34 ba3d af7b 153d
000000f0: 3def 423d 550f d83d 582f f33c 8f8c 023f
00000100: f5bc 3e3e 959e 3fbd 8f59 f43c c416 083b
00000110: 1c32 803e 1417 2d3c ac55 643e 7a51 333c
00000120: 51c5 653e 9a5e d1bd c29d 24be 8fd2 1bbd
00000130: e229 e73e 442e c6bc 5f7c 2e3e 6d66 c63c
00000140: c749 2d3d 61ee 82bd fe51 9cbe fb98 7f3e
00000150: 061f 5e3d 5ecc 08be d3fb f1bd 83ea 05bd
00000160: 896d 843d 53c3 883d 9bbb 9bbc ebfd ff3d
00000170: eaf6 0abe e1d2 28be 139a 37be 8a7d 52bd
00000180: dbd3 17bd 9480 53be 55db 07c0 cffd 5dbc

lstm.weight_ih_l1 f4 [100, 50]
-0.04227927 0.10392208 -0.06754417 -0.062391207 0.23617502 -1.2141408 -0.082223795 0.053510424
-0.23150992 -0.2660211 -0.63676405 -0.23730804 0.052359615 -0.2927442 0.20001158 -0.24222516
-0.034621872 0.013668432 -0.11465305 -0.03010881 -0.33591577 0.318828 1.8994923 0.14754304
0.016253347 -0.10299009 0.15054354 -0.13548908 -0.29941118 0.49543127 0.41329053 -0.0805349
-0.060200606 0.29307264 0.042181443 -0.022284385 0.21065156 0.056593895 -0.15774834 -0.120010875
0.2342313 -0.18271409 0.022817098 0.46618804 0.22158542 -0.43151626 -0.0989733 0.15751028
-0.8447789 0.29132906 0.012306127 -0.061609503 0.07327172 0.040929023 -0.076432064 -0.08214642
0.026756462 -0.22437634 -0.14569767 0.04137519 -0.049544983 0.017213818 0.0110072335 -0.0153831355
-0.20111352 -0.06730378 -0.17134641 0.04271421 0.007426106 0.02621851 0.019400075 0.1911868
-0.029207116 0.024314 0.006752616 -0.06919001 0.11264347 -0.015720943 0.031400498 -0.08916184
0.111336604 0.46178302 -0.025182594 0.042496867 -0.03110197 -0.005166446 -0.08976266 -0.06973778
-0.018112741 0.13529637 -0.16062284 0.02451578 0.007916697 0.11140695 0.07703817 0.111131966
-0.027994938 0.033647403 -0.10502098 -0.00038204016 -0.005972542 -0.0103924535 -0.1352782 0.18729894
-0.040684864 0.11297319 -0.012411763 -0.13071169 -0.29486006 -0.00076796004 0.012230908 0.073911324
-0.011414306 -0.03485935 -0.22006465 0.23855233 -0.032150295 0.012952176 -0.062447604 -0.024786633
0.019957002 0.13806 -0.020762578 0.001314626 -0.0030701328 -0.028348077 0.028441476 0.004299091
-0.08011688 0.0567725 0.045760997 -0.22931081 -0.013386275 0.039003715 0.03706095 -0.005569272
0.063778624 0.030324548 0.07863862 0.10385248 0.0068491213 -0.028855838 0.004268101 0.021713853
0.0564742 0.18561606 0.008582978 -0.028243685 -0.15528911 -0.014043242 -0.022197492 0.46918023
0.32792318 0.05399018 0.22373483 -0.2272927 -0.035286304 -0.020197837 0.12217746 -0.08384395
0.043042596 -0.2266863 -0.012435843 -0.18943653 0.12679186 0.1613754 -0.030911805 0.10255058
0.0855628 0.31300265 0.10177125 0.18242283 0.12430773 -0.3401718 -0.0021347946 0.015991738
0.19089307 0.08355466 0.16440009 -0.13358384 -0.120187335 -0.1442508 0.2681788 -0.107081585
0.18501763 0.00052271946 0.2799693 -0.13976419 0.15023784 -0.22016673 0.2542376 -0.22121114
-0.09571227 0.05566507 -0.28215146 -0.24870327 -0.019231867 -0.13922131 0.15353449 0.08032075
-0.15724826 0.23457944 -0.17844538 0.3044112 0.17311993 -0.6901844 -0.35789004 0.2075115
-0.09198472 -0.37530732 0.5888013 0.82627803 -0.10631855 -0.002160749 -0.2635461 -0.42023495
-0.17035034 -0.18848391 0.118658535 -0.029760607 -0.45000827 1.3543793 0.01399284 0.34647
-0.05944466 0.07416395 -0.22769867 -0.024232538 0.16607195 0.32325852 -0.2102634 0.5859277
0.5029811 0.1966655 0.15677518 0.03088206 -0.1544174 0.3590913 0.15871601 0.47245407
0.29394788 -0.29152414 0.0048502274 -0.60476184 0.38421848 -0.15154359 -0.25536102 -0.051419158
-0.9121543 -0.49606746 -0.006365757 -0.12686114 -0.26082796 -0.038339607 0.021574402 0.08158756
00000000: 072d 2dbd 19d5 d43d 9954 8abd ec8d 7fbd
00000010: ddd7 713e f768 9bbf f364 a8bd bf2d 5b3d
00000020: f010 6dbe eb33 88be f802 23bf e100 73be
00000030: 0977 563d 91e2 95be d6cf 4c3e df09 78be
00000040: aacf 0dbd 8ff1 5f3c 38cf eabd c0a6 f6bc
00000050: 27fd abbe 6c3d a33e 9022 f33f 8615 173e
00000060: bd25 853c 78ec d2bd 1628 1a3e a6bd 0abe
00000070: 6c4c 99be 2ba9 fd3e d19a d33e 7bef a4bd
00000080: e994 76bd 9e0d 963e 73c6 2c3d be8d b6bc
00000090: 0bb5 573e 00cf 673d c888 21be 43c8 f5bd
000000a0: 54da 6f3e 6719 3bbe ecea ba3c 33b0 ee3e
000000b0: 4ae7 623e b3ef dcbe 83b2 cabd 604a 213e
000000c0: 6e43 58bf 1529 953e a39f 493c 3f5a 7cbd
000000d0: 7c0f 963d 31a5 273d 6a88 9cbd 623c a8bd
000000e0: 5e30 db3c e9c2 65be c531 15be 0879 293d
000000f0: aeef 4abd fe03 8d3c af57 343c 8c09 7cbc
00000100: b4f0 4dbe 90d6 89bd 6f75 2fbe 18f5 2e3d
00000110: b156 f33b 33c8 d63c e8ec 9e3c 79c6 433e
00000120: c343 efbc 272e c73c 0c45 dd3b 7eb3 8dbd
00000130: 9fb1 e63d 35c9 80bc cf9d 003d 7c9a b6bd
00000140: 7204 e43d d36e ec3e ba4b cebc 3211 2e3d
00000150: 8fc9 febc 4a4b a9bb 7cd5 b7bd aed2 8ebd
00000160: 2c61 94bc 228b 0a3e 507a 24be 51d5 c83c
00000170: 09b5 013c 5429 e43d 30c6 9d3d 2899 e33d
00000180: a455 e5bc dcd1 093d 3d15 d7bd 904c c8b9
00000190: 50b5 c3bb 1c45 2abc 5e86 0abe 4bcb 3f3e
000001a0: 2ca5 26bd 7d5e e73d b55a 4bbc 49d9 05be
000001b0: e6f7 96be ed50 49ba 2564 483c d25e 973d
000001c0: 1203 3bbc aec8 0ebd a158 61be 1047 743e
000001d0: 07b0 03bd 5d35 543c 0fc9 7fbd 560d cbbc
000001e0: de7c a33c 9a5f 0d3e 4816 aabc 874f ac3a
000001f0: 4834 49bb 3a3a e8bc 19fe e83c 64df 8c3b
00000200: 5214 a4bd 488a 683d e26f 3b3d 74d0 6abe
00000210: 1b52 5bbc 5cc2 1f3d 39cd 173d 717e b6bb
00000220: 5e9e 823d 306b f83c 490d a13d 9cb0 d43d
00000230: 986e e03b 1463 ecbc 6ddb 8b3b 40e1 b13c
00000240: 7e51 673d 2312 3e3e 9e9f 0c3c 4d5f e7bc
00000250: 1c04 1fbe a015 66bc 84d7 b5bc 6438 f03e
00000260: 8ce5 a73e cf24 5d3d be1a 653e 6bbf 68be
00000270: 5f88 10bd ef75 a5bc 2d38 fa3d 60b6 abbd
00000280: 6f4d 303d 7420 68be b5bf 4bbc a6fb 41be
00000290: bad5 013e 983f 253e c13a fdbc 0a06 d23d
000002a0: 8d3b af3d e241 a03e 726d d03d 0dcd 3a3e
000002b0: 0d95 fe3d 002b aebe e9e7 0bbb 1b01 833c
000002c0: 7979 433e b51e ab3d 7f58 283e 34ca 08be
000002d0: c724 f6bd 7bb6 13be bb4e 893e 974d dbbd
000002e0: 4375 3d3e 1c07 093a 2358 8f3e 581e 0fbe
000002f0: f3d7 193e 6373 61be 6e2b 823e 2c85 62be
00000300: cb04 c4bd 0e01 643d 2876 90be 12ac 7ebe
00000310: 268c 9dbc 0890 0ebe 2538 1d3e 357f a43d
00000320: b005 21be 9835 703e 63ba 36be c9db 9b3e
00000330: 5a46 313e edaf 30bf 5d3d b7be e57d 543e
00000340: 7c62 bcbd 4828 c0be afbb 163f f586 533f
00000350: 8abd d9bd 5a9b 0dbb 84ef 86be 0929 d7be
00000360: 5270 2ebe ed01 41be 3f03 f33d 84cc f3bc
00000370: 7c67 e6be 4d5c ad3f 3a42 653c 8464 b13e
00000380: 3e7c 73bd 45e3 973d d729 69be 5183 c6bc
00000390: c40e 2a3e 2482 a53e 4a4f 57be 5cff 153f
000003a0: 5fc3 003f ae62 493e ac89 203e 60fc fc3c
000003b0: 981f 1ebe d1da b73e 7386 223e 80e5 f13e
000003c0: 5680 963e a742 95be a8ee 9e3b acd1 1abf
000003d0: 49b8 c43e 3e2e 1bbe aebe 82be e59c 52bd
000003e0: f282 69bf 8efc fdbe d797 d0bb e3e7 01be
000003f0: 3e8b 85be fe09 1dbd cdbc b03c 6117 a73d

lstm.weight_hh_l1 f4 [100, 25]
-0.10894868 0.19188446 0.33297607 -0.27675593 -0.31222895 -0.20124847 -1.1433325 -0.037360113
0.41537932 0.14767139 0.15122026 -0.030060805 -0.17720832 0.2500554 0.20126186 -0.59443134
1.1407588 -0.07715543 0.0004295026 0.27868834 0.12886105 -0.7237169 0.059383538 -0.025455778
0.9873496 0.012270931 0.123546146 0.0597363 0.11396018 0.1268246 0.01134752 0.12231887
0.01599061 -0.34686926 -0.010167617 -0.14866443 0.0015677898 0.288311 0.1777949 -0.048654664
0.03147482 0.08763573 0.09325284 -0.08123036 -0.13932341 0.019241836 -0.06642528 0.088096485
0.08396767 -0.14059381 0.08621333 0.10410861 0.062586255 -0.07565521 0.12812509 -0.04917305
0.12568937 0.018206332 -0.18780139 0.022592483 -0.16024803 0.0032703446 0.13501078 0.14414836
0.043544084 -0.113217995 -0.095344245 0.09367823 -0.11273198 -0.18323031 0.12816684 0.039316267
0.039131366 0.09472827 -0.02188124 0.09658598 0.030742198 -0.14893378 0.1666478 0.16845295
-0.69459563 -0.48038897 -0.05127441 -0.071133934 0.47578332 0.123541385 -0.69496346 -0.10455381
0.2063636 0.066864505 0.06404766 -0.32487231 -0.16235255 0.18195933 -0.00037821193 0.068955645
-0.53469074 -0.16423696 0.319022 0.07705144 0.5443916 -0.50704813 -0.19825044 -0.081580736
-0.7358384 0.23287496 -1.6491587 0.34844753 0.7699217 0.5602966 0.095364645 -0.333883
-1.0943276 -0.18357927 0.14803927 0.14198565 -0.9804625 -0.5067344 0.09169212 0.57225734
-0.08024572 -0.5458219 0.2512172 1.9957602 1.0009794 0.051793538 -0.018408831 -0.012250449
0.035818275 0.115843564 -0.025458788 -0.00080922194 0.02888179 -0.14366506 -0.052559406 -0.16007125
0.0042341603 0.1544512 0.016809285 0.010334242 -0.009183314 -0.023361297 0.0528198 -0.15951502
-0.071888156 0.04665641 0.08295956 -0.048852794 0.04733828 -0.048649058 -0.09979939 -1.1743189
-0.75053835 0.2744398 1.6932782 -0.749491 -0.6277876 -0.09473955 1.1590035 0.09785404
0.6217746 -0.2881959 -1.6234972 -0.97447395 -0.22444715 0.55382156 -0.5347618 -1.8680639
0.8122005 0.43649685 0.357763 1.2082556 -0.20415407 0.46222278 2.5438595 -0.13026491
0.1072436 -0.17985934 0.38404658 -0.05639365 -0.06833166 0.33908293 -0.14343034 -0.023699371
0.063096285 -0.09307604 -0.009981617 0.074515134 -0.5452078 0.1831384 0.37029672 0.10706259
-0.019345373 0.09811989 0.15883023 0.07661235 0.50342244 0.0021436855 0.62054354 -0.039451264
0.12348364 0.0009229399 0.002198294 -0.097947195 0.16818821 -0.060700256 0.08595238 0.013596395
-0.06766995 0.08075665 -0.04933939 0.13845389 0.03678767 0.13498655 -0.039625134 -0.05870423
0.031465873 0.055859603 -0.080208026 -0.05732081 -0.22452779 0.15762524 0.13325843 0.06294236
0.06183 0.22257295 -0.07970189 -0.5329721 0.5161789 0.18726975 0.097694345 -0.25887766
-0.41833305 0.15129867 -0.06096812 0.033150457 -0.22252482 -0.25028825 -0.26531926 0.30569896
0.03102742 0.05688594 -0.5030027 0.44330826 0.30389434 0.0034291896 0.3862464 -0.13821988
0.28169796 0.2297695 -0.14816101 -0.10167559 0.07314621 0.079996265 -0.41681096 0.19869755
00000000: 7c20 dfbd 5c7d 443e d77b aa3e f4b2 8dbe
00000010: 79dc 9fbe 1414 4ebe b858 92bf eb06 19bd
00000020: 99ac d43e 2b37 173e 7cd9 1a3e 1442 f6bc
00000030: 1976 35be 4307 803e 9717 4e3e a72c 18bf
00000040: 6204 923f ab03 9ebd dd2e e139 3db0 8e3e
00000050: 27f4 033e 8345 39bf 273c 733d a388 d0bc
00000060: f2c2 7c3f 040c 493c c305 fd3d 0dae 743d
00000070: f463 e93d 4fde 013e f3ea 393c 5182 fa3d
00000080: bdfe 823c d998 b1be 1496 26bc 7d3b 18be
00000090: 4c7e cd3a 809d 933e de0f 363e 1d4a 47bd
000000a0: beeb 003d 5d7a b33d 58fb be3d 1a5c a6bd
000000b0: ccaa 0ebe 0ea1 9d3c fa09 88bd ee6b b43d
000000c0: 3ef7 ab3d d3f7 0fbe 9d90 b03d e536 d53d
000000d0: 392d 803d 1ef1 9abd 3933 033e ae69 49bd
000000e0: b7b4 003e 7225 953c 024f 40be df13 b93c
000000f0: 0f18 24be 4753 563b 4440 0a3e a19b 133e
00000100: 485b 323d d6de e7bd d843 c3bd 5fda bf3d
00000110: 06e0 e6bd baa0 3bbe 2b3e 033e 180a 213d
00000120: 3648 203d e500 c23d 4940 b3bc dfce c53d
00000130: 10d7 fb3c 1982 18be b9a5 2a3e ee7e 2c3e
00000140: 05d1 31bf 8bf5 f5be 1e05 52bd abae 91bd
00000150: df99 f33e 4403 fd3d 20e9 31bf 4f20 d6bd
00000160: fb50 533e 42f0 883d 6b2b 833d aa55 a6be
00000170: bf3f 26be 8c53 3a3e bf4a c6b9 9e38 8d3d
00000180: 7ee1 08bf bc2d 28be da56 a33e 25cd 9d3d
00000190: 3f5d 0b3f e8cd 01bf 2a02 4bbe cd13 a7bd
000001a0: e85f 3cbf c676 6e3e a217 d3bf b767 b23e
000001b0: 9719 453f 996f 0f3f 8a4e c33d b6f2 aabe
000001c0: ed12 8cbf 34fc 3bbe 9b97 173e b064 113e
000001d0: 97ff 7abf 58b9 01bf 14c9 bb3d 757f 123f
000001e0: de57 a4bd fcba 0bbf 8a9f 803e 1275 ff3f
000001f0: 1820 803f 7625 543d 1ece 96bc 1bb6 48bc
00000200: 2fb6 123d 643f ed3d f38e d0bc f721 54ba
00000210: 8199 ec3c ef1c 13be 8848 57bd b8e9 23be
00000220: b6be 8a3b 7528 1e3e a0b3 893c f450 293c
00000230: 9c75 16bc 3160 bfbc 9359 583d e857 23be
00000240: 193a 93bd cb1a 3f3d b4e6 a93d de19 48bd
00000250: c9e5 413d 3c44 47bd 9f63 ccbd 1550 96bf
00000260: 4823 40bf 6083 8c3e 57bd d83f a4de 3fbf
00000270: b0b6 20bf cf06 c2bd 3a5a 943f b367 c83d
00000280: 9f2c 1f3f 6a8e 93be c2ce cfbf 2077 79bf
00000290: 79d5 65be 40c7 0d3f 26e6 08bf b81c efbf
000002a0: 5fec 4f3f 847c df3e b62c b73e 1fa8 9a3f
000002b0: c40d 51be 77a8 ec3e 98ce 2240 2a64 05be
000002c0: 88a2 db3d 0c2d 38be c1a1 c43e 07fd 66bd
000002d0: 78f1 8bbd 479c ad3e 67df 12be 2f25 c2bc
000002e0: a038 813d a79e bebd f089 23bc 649b 983d
000002f0: bd92 0bbf a288 3b3e 8897 bd3e a243 db3d
00000300: 307a 9ebc 15f3 c83d 64a4 223e f0e6 9c3d
00000310: 4be0 003f 137d 0c3b f1db 1e3f a697 21bd
00000320: fee4 fc3d 73f1 713a 4111 103b 8a98 c8bd
00000330: 8839 2c3e d5a0 78bd cd07 b03d 6ac3 5e3c
00000340: 8b96 8abd be63 a53d 1a18 4abd dbc6 0d3e
00000350: abae 163d ea39 0a3e f74d 22bd d973 70bd
00000360: 5ce2 003d 0acd 643d 1b44 a4bd 3ac9 6abd
00000370: 9dea 65be 8368 213e e674 083e ede7 803d
00000380: 7441 7d3d 2aea 633e bf3a a3bd dc70 08bf
00000390: 4d24 043f a4c3 3f3e f913 c83d 9d8b 84be
000003a0: c02f d6be 0aee 1a3e b5b9 79bd c6c8 073d
000003b0: 8cdd 63be c825 80be edd7 87be 9384 9c3e
000003c0: 372d fe3c 3b01 693d c9c4 00bf 4df9 e23e
000003d0: 0a98 9b3e 41bc 603b 17c2 c53e 8389 0dbe
000003e0: b73a 903e b248 6b3e 85b7 17be 4b3b d0bd
000003f0: aecd 953d 15d5 a33d 3f68 d5be 5f77 4b3e

lstm.bias_ih_l1 f4 [100]
-0.10632564 0.38775638 0.20670566 -0.035672016 -0.57484764 -0.11496573 -0.29938903 -0.21240622
0.056929152 -0.34998557 -0.12824683 -0.11955832 0.1571179 0.14085524 -0.14695658 0.05732046
0.29566544 -0.6684664 -0.12417055 0.10242173 -0.3201362 -0.3845298 -0.07502712 0.027646102
-0.3464668 0.39394253 -0.0069320123 0.21148667 0.13014257 0.17737961 0.2585576 0.44672644
0.1292061 0.19185026 0.09743572 0.42833263 0.067164935 0.21047981 0.47474617 0.04880005
0.17543063 0.14665157 0.78435224 0.28821403 0.2102309 0.1989622 0.40793073 0.12315914
0.25844303 0.38841823 0.24128962 0.15047656 0.45031345 -0.002187414 0.29789183 -0.1794629
0.055027787 0.07967262 -0.21651907 0.22427073 -0.055547107 -0.00067238434 0.20346557 0.31127113
-0.0654106 -0.10931383 -0.34408024 0.3495625 -0.22011961 -0.07659762 0.028497268 0.038721424
0.0080646705 0.42549166 -0.258688 -0.11865493 0.38608217 -0.21244812 0.08882289 0.026763216
-0.13946947 -0.23364322 -0.14521125 0.24365096 -0.08266889 0.4759611 -0.054595508 -0.1492307
0.2630348 0.028630588 -0.031755928 0.3964986 0.5366582 0.5238621 0.18061501 0.006664064
0.11426993 -0.07859672 0.23087186 -0.4056196
00000000: 42c1 d9bd 0188 c63e a6aa 533e d21c 12bd
00000010: 3729 13bf 2773 ebbd 8549 99be 0481 59be
00000020: 8b2e 693d 4f31 b3be 2353 03be feda f4bd
00000030: 84e3 203e 5b3c 103e c97b 16be dcc8 6a3d
00000040: 7661 973e 9d20 2bbf 214d febd 7cc2 d13d
00000050: e4e8 a3be 17e1 c4be d2a7 99bd 147a e23c
00000060: 1964 b1be d6b2 c93e ef25 e3bb f68f 583e
00000070: 1844 053e 00a3 353e a961 843e 54b9 e43e
00000080: 9b4e 043e 6574 443e 618c c73d 6a4e db3e
00000090: c58d 893d 0588 573e ee11 f33e 90e2 473d
000000a0: 16a4 333e d42b 163e 4fcb 483f ca90 933e
000000b0: c546 573e bfbc 4b3e 4cdc d03e dc3a fc3d
000000c0: a552 843e c1de c63e a014 773e 8716 1a3e
000000d0: 7c8f e63e b85a 0fbb 4785 983e 1fc5 37be
000000e0: d164 613d 662b a33d 2db7 5dbe 3aa7 653e
000000f0: 5d85 63bd f342 30ba 4759 503e ee5e 9f3e
00000100: fef5 85bd eedf dfbd 492b b0be dbf9 b23e
00000110: 0967 61be 37df 9cbd 1a73 e93c 5b9a 1e3d
00000120: ae21 043c 0bda d93e c172 84be 5b01 f3bd
00000130: 90ac c53e 008c 59be c6e8 b53d 883e db3c
00000140: 16d1 0ebe 2b40 6fbe 42b2 14be a37f 793e
00000150: 4f4e a9bd 2cb1 f33e 8a9f 5fbd efcf 18be
00000160: 7fac 863e b28a ea3c 8112 02bd dd01 cb3e
00000170: 6f62 093f d41b 063f 24f3 383e 385e da3b
00000180: 5a06 ea3d 51f7 a0bd ac69 6c3e 5fad cfbe
